model.pth (torch, 432597 bytes, 6 tensors)

weight f4 [96, 784]
000000 6e 5d f1 bb ee d5 0c 3c 37 ce 85 3c e5 8c 8d 3b
       -0.007365874 0.008595927 0.016333682 0.0043197745
000010 6a 1a f6 3c a3 26 8e bc 4e 89 3d 3c 53 0b db 3b
       0.030041892 -0.017352408 0.0115683805 0.0066846996
000020 93 a3 40 3b 05 92 b7 bc b0 c6 93 3c 97 dd 99 3c
       0.0029394373 -0.022408495 0.018039078 0.01878242
000030 3b 9a 49 3c df 0e 0b bc 11 84 33 bd 41 5c be 3c
       0.012304838 -0.008487432 -0.04382712 0.02323735
000040 4c 6f e7 bc a1 10 d1 bc 97 02 ca bc 18 6c 0f 3d
       -0.028251313 -0.025520625 -0.024659438 0.035015196
000050 9c 4c f0 3c 78 ff ed 3c 15 66 a1 bc b5 52 84 3c
       0.029333405 0.029052481 -0.019701997 0.016152719
000060 ea 60 6c bc 1c c8 a5 bb 38 52 69 3c 8a a5 9c bc
       -0.014427403 -0.0050592553 0.014240794 -0.019121904
000070 2f 2f 0f 3d de c9 fb bc b5 b1 b6 3c c0 f4 0c 3c
       0.034957107 -0.030735906 0.022301534 0.008603275
000080 b4 92 05 3d 11 44 d4 3c 01 ed 8e 3d 59 19 53 3d
       0.03261061 0.025911363 0.06978799 0.051537845
000090 d1 5b a8 3c db 30 25 bd 01 ba 78 3c 19 a2 92 3c
       0.020551594 -0.040329795 0.015181066 0.01789956
0000a0 03 00 a5 3d de 86 9b 3d 47 56 f9 3c 58 5c 08 bd
       0.08056643 0.07594083 0.030436648 -0.03329119
0000b0 ba 2e 5d 3c 06 d7 9d ba 34 bd 55 bc fb 0e e2 bc
       0.01349991 -0.0012042231 -0.013045598 -0.027595034
0000c0 d7 2f 93 bc fc 9e 93 3c 8c 90 eb 3c cf 48 65 3c
       -0.017967148 0.018020146 0.028755449 0.01399441
0000d0 77 9f d9 bc 93 5c e4 3b 00 88 02 b9 35 c7 09 bd
       -0.026565297 0.0069690435 -0.0001244843 -0.033637244
0000e0 30 c0 0c bd 44 20 0f bd a1 32 d1 bc 69 4a 2a 3c
       -0.03436297 -0.03494288 -0.025536837 0.010393717
0000f0 2f 15 97 bb de bc 18 3c f4 f2 8e 3c f2 1c 20 bd
       -0.0046106796 0.009322373 0.017449833 -0.039090104
000100 a9 91 b1 bd 86 a5 2e be 06 a3 8c bd b0 e0 19 bd
       -0.086703606 -0.1705533 -0.06867032 -0.037567794
000110 ed 1c 0b be 92 be 23 be b2 f7 21 be 61 f7 3c be
       -0.13585253 -0.15990666 -0.15817145 -0.18453743
000120 7f 7a f2 bd e3 56 fb bd c0 20 44 3d eb ae 9a 3d
       -0.118397705 -0.12272432 0.047882795 0.07552894
000130 27 c5 08 3e 8d 37 e0 3d 28 3f e7 3d 5d 3b d8 3d
       0.13356458 0.109480955 0.11291343 0.10558198
000140 80 19 ef 3b d4 49 50 bc bd 8d 11 bd 4a dc 42 bb
       0.007296741 -0.0127129145 -0.035535563 -0.0029733353
000150 a5 6a 85 3c c4 d2 00 3d 5f 90 8e 3c 4a b8 12 bd
       0.016286204 0.031451 0.017402826 -0.035820283
000160 71 93 ba bc dd 75 b2 bd 53 93 6b bd 67 f5 2d be
       -0.022775384 -0.08713887 -0.057513546 -0.16988145
000170 65 c3 48 bd fb 60 4a be 9d 2c 0a be bd db 65 bd
       -0.049014468 -0.19763558 -0.13493581 -0.056117762
000180 3f aa a7 3e a0 5b 8a 3e d2 95 15 3e 94 ec b8 bd
       0.32747075 0.2702303 0.14607933 -0.09029499
000190 96 b4 b1 bd a3 79 8a bd 1d 54 7d be cf ea 15 be
       -0.08677022 -0.067614816 -0.24739118 -0.14640354
0001a0 1a 39 9e bd e8 4b 1a 3e 19 ba b6 3d c7 ae 4a bc
       -0.07725735 0.15068018 0.08922214 -0.012370772
0001b0 60 1f 9a 3d 43 64 35 bc 6f be 7a 3d 5a 3b c9 3c
       0.075255156 -0.011071268 0.061216768 0.024564434
0001c0 61 1e 6a 3c 45 c5 bc 3b 92 1a a7 bd e0 5f ae 3d
       0.014289469 0.005760821 -0.08159365 0.085143805
0001d0 33 c9 72 3c 55 44 23 be c2 65 05 be 5d 88 e2 3c
       0.014818477 -0.15944035 -0.13027099 0.027652914
0001e0 23 b9 d8 bd d7 61 97 bd 1c 87 b6 bd e5 0d ee 3d
       -0.10582187 -0.07391708 -0.08912489 0.11623744
0001f0 38 4a 33 3d 0b 78 ad 3c 87 95 c6 bc f0 6b 7c 3d
       0.043771952 0.021175405 -0.024241222 0.061626375
000200 8e f6 67 39 7e 46 2f bd 35 03 69 bb 96 a5 ce bc
       0.00022121725 -0.042791836 -0.003555489 -0.025225442
000210 a3 5a 0f bb c7 c4 dd 3d 08 a1 ea 3d 33 94 43 3e
       -0.0021874092 0.10828548 0.114564955 0.19099502
000220 56 3d a3 3e 32 4f 9d 3e f3 9f 74 3e ad 4b a5 bd
       0.31882733 0.30724484 0.23889141 -0.08071075
000230 13 16 8f 3b 28 72 f1 bc e9 51 3e bd 39 d9 97 bd
       0.004366645 -0.02947338 -0.046464834 -0.07414479
000240 9c 8d 63 be 80 72 41 be 5b 45 23 b9 30 91 3b 3d
       -0.22221988 -0.18891335 -0.00015570728 0.04579276
000250 e4 a7 cc 3d b1 07 9a 3d fe 25 5a 3e c3 0e 3b 3e
       0.0999296 0.07520998 0.21303555 0.1826735
000260 7c 2b ff 3d 68 6d 5a 3e f2 6c b4 3c 6d 76 c1 bc
       0.12459466 0.21330798 0.022024605 -0.02361604
000270 1c 02 cd 3c fc f7 8e 3d 42 42 c8 3d 44 a5 95 3d
       0.02502542 0.06980893 0.09778263 0.073069125
000280 32 ca 0f 3e 57 0b 34 3d a7 07 e3 3d 22 73 96 3d
       0.14041975 0.043956127 0.11085444 0.073461786
000290 4e ca 0c 3e e4 b0 af 3e 5c 57 6d 3d bf 05 c2 bd
       0.13749048 0.34314644 0.05794464 -0.09473752
0002a0 d3 76 bd 3c 97 2b 7a bc 86 05 29 3e 00 a1 16 be
       0.023127949 -0.015269182 0.16506013 -0.14709854
0002b0 c8 19 0d be 31 4b 82 3d be a3 cf 3d 00 dc df ba
       -0.13779366 0.06361998 0.10138653 -0.0017079115
0002c0 73 eb 1b 3e b5 cf ec 3d ba 1a fd 3d 8c bf cd 3d
       0.15226535 0.115630545 0.12358613 0.100463
0002d0 de 82 0c 3e e0 74 db 3d 93 72 2c 3e 72 57 bd 3c
       0.13721797 0.107156515 0.16840582 0.023112986
0002e0 60 d6 a8 bc c1 30 bb bd 31 77 d2 bc 3d 8c 68 3b
       -0.020610034 -0.091401584 -0.0256916 0.003548398
0002f0 d1 21 f5 3d f0 1c 13 3d 92 97 4a bd c3 d2 ab 3b
       0.119693406 0.03591627 -0.049460955 0.0052436306
000300 12 64 21 3e 70 7b 2e 3d da b7 05 3d ed 99 04 bd
       0.1576083 0.042598188 0.032646038 -0.032373358
000310 aa 1d 51 3c 03 ee 05 3d 92 e0 3d 3e 5e df e7 bd
       0.01276342 0.03269769 0.18542698 -0.11321901
000320 f1 a3 38 be f5 5b 84 3d 7b 8e d6 3d f8 00 d4 bb
       -0.18031289 0.06462852 0.10476395 -0.006469842
000330 05 de 30 3d d4 3e cc 3d f2 ed 02 3e 65 82 ed 3d
       0.043180484 0.09972921 0.12786081 0.115971364
000340 36 27 1e 3e fe 35 70 3d f6 48 90 3d 62 77 05 3a
       0.15444645 0.05864524 0.07045166 0.0005091337
000350 9d 6a 43 3d 69 2a 71 3c 79 50 20 bd cc 0a 8d 3c
       0.047709096 0.014719584 -0.039139245 0.017217062
000360 7a 80 91 3d 77 b6 b6 3d 55 43 70 3d 60 8c ca 3d
       0.07104583 0.08921521 0.058657963 0.09890056
000370 de 72 1e 3e be 29 5c 3e 31 d3 3a 3e cb bb 31 3d
       0.15473506 0.21500298 0.18244626 0.043391984
000380 22 43 dd bc 98 8e 95 bd af ac 23 3e 11 c9 0c be
       -0.02700955 -0.07302588 0.15983842 -0.13748576
000390 47 88 42 be a1 97 87 3b 1d e9 77 3d 5e 99 c3 bd
       -0.18997298 0.0041379486 0.06052505 -0.09550737
0003a0 41 12 9c 3d 66 f7 52 3d 63 cb 94 3d fb df b0 3d
       0.07620669 0.05150547 0.072653554 0.08636471
0003b0 81 d0 11 3e f1 7d cb 3d 09 8d 13 3d 95 4c b1 3d
       0.14239694 0.09936131 0.036023173 0.08657185
0003c0 2e b9 dc 3d 0c 34 1c 3d 13 2d 33 3d d0 50 0d 3c
       0.10777508 0.038135573 0.043744158 0.008625224
0003d0 73 00 9b 3d 30 7f f2 3d f2 a0 00 3e 70 12 46 3e
       0.07568445 0.11840665 0.12561396 0.19342971
0003e0 d6 b4 95 3e fd a9 77 3e ad 21 92 3e f5 08 c0 b9
       0.2923953 0.24185939 0.28541318 -0.00036627767
0003f0 fc 8f f1 37 c2 82 2c bd cb 1a 24 bd 2f 43 59 be
       2.8796487e-05 -0.042116888 -0.040064614 -0.21217035

bias f4 [96]
000000 1a 84 01 3d aa 9e 7f be 58 d9 f3 bd c6 63 91 3d
       0.031620122 -0.2496287 -0.119066894 0.070991084
000010 a4 6e 46 be b2 c4 a2 bd a0 ae 77 3e 3c d6 6c bd
       -0.19378144 -0.07947673 0.24187708 -0.057821497
000020 b1 c0 ab 3c fd e2 d4 bd aa 65 04 3e cd 28 85 be
       0.020965906 -0.10394857 0.12929407 -0.2600769
000030 85 75 0c be 0c b3 a3 3d 96 79 3e 3e 71 09 ec 3b
       -0.13716705 0.07993135 0.18601069 0.007203274
000040 b4 a3 33 3c 00 1d 59 3e 18 a6 be bd 3d 16 03 bc
       0.010964323 0.21202469 -0.093090236 -0.0080009075
000050 fc ec de bd 56 bc 7d 3e 82 4f 18 3e bb af 18 be
       -0.10885045 0.24778876 0.1487408 -0.14910786
000060 37 fe 10 3e ad 02 11 be 44 20 07 3e 5f e8 7f bd
       0.14159475 -0.14161177 0.13195902 -0.062477466
000070 bb 63 7c 3d d2 52 b0 bd 2e 86 0d 3e 25 32 df 3d
       0.061618548 -0.08609547 0.13820717 0.10898236
000080 32 d4 28 3e 9f 01 bf bd e2 3c d1 bc 54 9d 85 bd
       0.16487196 -0.09326481 -0.025541726 -0.065241486
000090 ca 27 3d 3e c5 94 81 bd cb c7 90 bd ef aa 47 bd
       0.1847221 -0.06327204 -0.070693575 -0.048747
0000a0 6a b5 05 be e5 01 9a be 91 8c 42 bd 2f c1 74 3c
       -0.13057485 -0.3007957 -0.047497336 0.014938637
0000b0 65 9e 71 be ad 4a 14 be e4 1c 49 bc f1 2e bd bd
       -0.23595579 -0.14481612 -0.0122749545 -0.09237469
0000c0 4e 0d 62 3e bf 1b 03 be 17 1f a4 3d 6c 93 53 be
       0.22075388 -0.12803553 0.080137424 -0.20661706
0000d0 66 9c 16 3e a0 5d 2d be 1d fb a1 3d ff e0 a3 bd
       0.14708099 -0.16930246 0.07909224 -0.08001899
0000e0 c8 f6 44 be f3 aa a4 3d 0f b4 ce 3d e0 c0 3d be
       -0.19234765 0.080404185 0.10092937 -0.18530607
0000f0 46 4d 55 be 2f ac 1c bd ae f9 ab bd 48 58 59 be
       -0.20830259 -0.038250145 -0.08397232 -0.21225083
000100 f6 dc 6d 3a 9f ca e2 bd fc fe 17 be f2 f3 17 3e
       0.0009073758 -0.11073803 -0.14843363 0.14839152
000110 27 ab 20 bd 59 58 2e bd 16 5a 9e 3c 47 c5 d2 bd
       -0.039225724 -0.042564724 0.019330066 -0.10291534
000120 11 e0 0f bc 7f 63 d2 bc 2c 90 80 be b6 c2 8f bd
       -0.008781449 -0.025682209 -0.25109994 -0.0701956
000130 f8 98 91 3d fb 29 28 be ec ff 99 3e 56 6e 57 3d
       0.071092546 -0.16422264 0.30078065 0.05259546
000140 1c 66 10 3e fb 50 f8 3d ad 4e 03 3d 33 d0 4e bc
       0.14101452 0.12124821 0.032057453 -0.012622881
000150 ad 92 b9 bd 16 d1 8f 3e fe 97 78 bd fd 4d 7d bc
       -0.09061179 0.28089207 -0.060691826 -0.015460488
000160 f4 02 16 3e 77 20 d7 3d b8 9a 5f 3e cb 68 13 bd
       0.14649564 0.10504239 0.21836364 -0.03598861
000170 27 de 0b bd 1c 3c 43 3e 12 ff 16 be 83 bc 9c 3e
       -0.034147408 0.19065899 -0.14745739 0.30612573

weight f4 [256, 96]
000000 51 64 ae be 08 25 0d 3e d1 5f 8c be 9b 14 9f be
       -0.3406091 0.13783658 -0.27416852 -0.31070408
000010 82 c3 8b be 55 89 99 bd ee 6e 99 be 26 1e 33 3e
       -0.27297598 -0.07496897 -0.29967445 0.1749197
000020 b7 70 2e be e1 b3 87 3e 79 3d 09 3e 6e df 4b 3e
       -0.17035185 0.26504424 0.13402356 0.1990945
000030 da ba 21 be fe f1 14 be 12 b6 5c bd 1c bb d1 be
       -0.15793934 -0.14545438 -0.053884573 -0.40963066
000040 d3 3b 92 3c 77 0f 60 be 08 16 09 bc 26 35 95 bd
       0.017850792 -0.218809 -0.008367069 -0.07285528
000050 96 08 41 be 2b 1d 28 3f ec 40 5a 3e 14 87 72 3e
       -0.18850932 0.65669507 0.21313828 0.2368434
000060 eb a4 3c bd 63 e6 95 bd dd b4 3e be ac d0 ba 3e
       -0.046055716 -0.073193334 -0.18623681 0.3648733
000070 d4 a9 18 3d 70 ec bf bd db ab af 3c 71 1d 77 3e
       0.037271336 -0.09371269 0.021444252 0.24132325
000080 0d 9d bd bd 94 27 01 b9 91 c7 ee bd a6 24 ed 3e
       -0.09258471 -0.00012317143 -0.11659158 0.46317023
000090 92 08 57 bd 10 f4 11 3d 1e 0d a2 3e 9e f6 e9 be
       -0.052498408 0.035633147 0.31650633 -0.45695966
0000a0 ed 82 89 be 09 f7 0a 3e 25 59 01 be 40 33 b6 ba
       -0.268577 0.13570799 -0.12631662 -0.0013900772
0000b0 fd ec 6b 3e 12 21 45 3c 7e 15 51 3c d8 71 05 be
       0.23039623 0.01203181 0.012761472 -0.13031709
0000c0 bf 37 be bd 78 0c d7 3e ea 6e b4 be 4f 09 0e 3d
       -0.092879765 0.420017 -0.3524087 0.034676846
0000d0 56 b5 01 be 0d af bb 3e 84 83 4c be e7 bd 14 bf
       -0.1266683 0.3665699 -0.19972044 -0.5810227
0000e0 eb 76 bd be 00 87 9a bc 3e cc 67 3e e1 88 c7 be
       -0.3700479 -0.018863201 0.22636506 -0.38971618
0000f0 47 6b 16 be dc a0 a6 3e 1d e5 7a 3d e6 c4 b7 3e
       -0.1468936 0.325446 0.061253656 0.3589241
000100 17 44 69 3e 91 31 5f 3e 00 18 6b 3e 75 e0 19 3f
       0.2277988 0.21796252 0.22958374 0.6010812
000110 b4 37 6e 3e ca 42 fd 3e 61 a2 99 bc 7e d5 a3 3e
       0.23263437 0.4946502 -0.018754186 0.3199882
000120 d1 b0 84 3d cb 2b a8 3d c1 5f 5a be d2 49 db bd
       0.064790376 0.08211478 -0.2132559 -0.107074395
000130 70 f4 42 3d c1 9c 20 3f 80 12 2b be ab 75 6e 3a
       0.047596395 0.6273919 -0.16706276 0.00090965134
000140 a6 73 87 3e 34 c5 9e 3d 8f b4 be 3d 62 cc 00 3e
       0.2645542 0.07752457 0.093117826 0.12577966
000150 7d 73 33 3d 02 bc 64 be 4c 8e b0 3d b1 11 52 be
       0.04381131 -0.22337344 0.08620891 -0.20514561
000160 0b e6 dd bd 49 be 37 3e e2 02 b3 be d8 2c 53 3e
       -0.10834893 0.17943682 -0.34963137 0.20622575
000170 a0 df f1 bb 00 78 86 be b9 8a 8a 3d 59 36 73 be
       -0.0073813945 -0.26263428 0.067647405 -0.237512
000180 34 3c 81 3e 2d 2e 91 be e9 a8 13 3d 95 60 7a 3e
       0.25241244 -0.28355542 0.036049757 0.24450906
000190 09 ad 0e 3e a1 60 ca be a5 13 19 3d a8 23 71 bb
       0.13933195 -0.39526847 0.03737225 -0.0036794934
0001a0 41 d2 87 3d 72 bc 0c bf cd e2 4a 3e 48 30 71 bd
       0.066318996 -0.54975045 0.1981308 -0.058883935
0001b0 a0 35 da be 96 66 0a 3e 1a 31 0b be a1 9d 41 bd
       -0.42619038 0.13515696 -0.1359295 -0.047269467
0001c0 b6 4e 05 3e 38 29 99 be b0 ee 21 be f1 d0 a7 bc
       0.13018307 -0.2991426 -0.15813708 -0.020485373
0001d0 c4 6a 72 3e ce 27 93 bd a4 3b 9c 3d 05 46 a2 be
       0.2367354 -0.071853265 0.07628563 -0.31694046
0001e0 71 7c 1e be ff d9 6a be 37 4d f7 3c e4 f9 02 3e
       -0.15477158 -0.22934721 0.030188186 0.12790638
0001f0 79 18 af 3e 0c c3 4a bf f2 88 41 bd 58 d3 2c 3e
       0.3419836 -0.7920387 -0.04724974 0.16877496
000200 29 71 88 be de db d3 3e 15 09 83 bd 0f c3 d4 ba
       -0.26648834 0.41378683 -0.06398217 -0.0016232448
000210 1c f7 74 3e 89 86 72 be 11 a3 d6 3c af 9b 98 3e
       0.2392239 -0.23684134 0.026200803 0.29806277
000220 d3 fe 46 be c9 61 33 3d 63 41 1e bd e0 54 c4 be
       -0.19433145 0.043794427 -0.038636576 -0.38346004
000230 ff 11 aa bd 90 cd d8 be b7 30 95 be 07 73 d8 3d
       -0.08304214 -0.42344332 -0.2913873 0.10568815
000240 19 8b 8a 3e da 4d 05 be 3b 62 ba bd 6e 27 1e be
       0.27059248 -0.1301798 -0.09100767 -0.15444729
000250 e7 da ed bd 70 77 bd be 85 a4 9b be 16 73 c4 3c
       -0.11614018 -0.37005186 -0.30398956 0.023980659
000260 aa ea 00 3e b3 8d e6 bd b4 83 1f be 6e 95 e2 3e
       0.12589517 -0.11257496 -0.15577585 0.4425463
000270 17 1e 47 be e8 f6 8b 3e 58 bc 05 3e 4a 48 56 3e
       -0.19445072 0.27336812 0.13060129 0.20926014
000280 f2 2f 36 3d 6f b1 05 bd ef 65 40 be 48 73 23 be
       0.044479318 -0.032639917 -0.18788885 -0.15961945
000290 06 bd 56 be 89 95 d8 bd dc b1 bb bd e2 9b 16 3e
       -0.20970544 -0.105753966 -0.09164783 0.14707902
0002a0 c0 8c 9d be c8 a6 25 be 8c fb b5 3e ec b6 1a bd
       -0.30771446 -0.16176903 0.35543478 -0.037772104
0002b0 1b 71 0b 3e 6e a1 20 be 1c 3f 92 bd 14 c3 74 be
       0.13617365 -0.1568658 -0.071409434 -0.23902541
0002c0 66 c0 27 3d 16 7d 02 3f 0d 2d 15 bf 18 f7 b0 3e
       0.04095497 0.50972116 -0.5827187 0.34563518
0002d0 37 36 c5 be 70 11 88 3e 92 81 46 3f f4 b7 61 bd
       -0.38517925 0.26575804 0.7754146 -0.055107072
0002e0 24 ed 11 3d 8d e9 a8 bd 6f 3a 51 3d b3 d1 70 3d
       0.035626546 -0.08247671 0.051081117 0.058793735
0002f0 76 85 d4 be 4f fe a6 3c 43 3f c2 3e 93 f1 a2 be
       -0.41508073 0.020384936 0.3793889 -0.31824932
000300 f5 a0 88 3d 12 17 7c 3e 34 7b 87 be ee b7 12 bf
       0.06671325 0.24618176 -0.26461184 -0.57311904
000310 86 37 8b 3e b9 a8 12 be 84 95 b9 bd c1 ba 2a be
       0.271908 -0.14322175 -0.09061721 -0.16672803
000320 04 31 7f be 4e 3e f7 3c 14 59 98 be 84 fb 97 be
       -0.24921042 0.030181076 -0.2975546 -0.2968408
000330 d1 85 2e bd 5e a3 1b bf 31 0e 14 be f7 81 13 bc
       -0.042608086 -0.60796154 -0.14458539 -0.009003154
000340 76 39 86 be 91 30 a0 bd 5a 68 0b 3e 83 31 ad 3e
       -0.26215714 -0.07821763 0.13614026 0.33826837
000350 dc 23 80 bd d8 4b d9 3c d5 4e 13 bc 22 55 ce 3e
       -0.0625684 0.026525423 -0.008990963 0.40299326
000360 c2 64 a9 be 60 a5 3b bc 56 e3 95 39 40 c9 03 be
       -0.33084685 -0.011453003 0.00028588873 -0.1286974
000370 71 4f 40 be bf d9 c8 3c fd 25 a9 be 70 0b 19 3e
       -0.18780304 0.024517892 -0.33036795 0.1494577
000380 b0 76 25 3d 13 26 38 be c8 fb 5d 3e 76 da 0a 3e
       0.040396392 -0.17983274 0.21678078 0.13559899
000390 af aa 71 bf 7a 69 db 3d 26 40 62 3c 10 1e f1 3d
       -0.9440107 0.107134774 0.0138092395 0.11773312
0003a0 f4 4f 5c ba 69 cc 11 be b3 5f d1 bd 6f f1 07 3e
       -0.0008404248 -0.14238133 -0.10223331 0.13275693
0003b0 5d 52 3e 3e 68 b1 c4 bd 16 f2 98 be 36 b2 14 be
       0.18586107 -0.0960415 -0.29872197 -0.14521107
0003c0 1c 39 b0 3d 4a f5 9d 3c 2d c4 1e 3e c5 6e 17 3d
       0.08604643 0.019282002 0.15504523 0.036970872
0003d0 15 38 c4 be 52 96 63 3f e4 69 9c 3d c1 48 03 3f
       -0.38324037 0.88901246 0.076373845 0.5128289
0003e0 bb d3 10 bd 05 04 ff bd 60 65 46 3d 67 71 bf bd
       -0.035358172 -0.124519385 0.048436522 -0.09347802
0003f0 fa 98 b6 3e ec 71 39 be a0 ad 9f 3e e6 32 9a be
       0.35663587 -0.18109864 0.31187153 -0.30116957

bias f4 [256]
000000 c5 24 82 3d 4f d2 20 be 0a 7c b5 3d fd 72 10 3e
       0.063546695 -0.15705226 0.08861549 0.14106365
000010 23 c3 c9 bd 1a 04 91 be f2 b7 8e be d0 62 31 3b
       -0.098516725 -0.28323442 -0.27874714 0.0027066953
000020 35 e5 e5 3d 6f 34 2b 3d 7e f3 10 3e 16 3e 9a be
       0.112253584 0.04179805 0.14155385 -0.30125493
000030 b8 82 26 bd 7c 5a de bd fe e3 84 3e 87 13 cc bc
       -0.040652007 -0.10857102 0.25955194 -0.024911655
000040 82 f6 b3 bd 2f 61 03 3c 97 48 23 3e 12 8b 64 3d
       -0.08787252 0.008018776 0.1594566 0.05579669
000050 95 8b 0b be 0e 77 40 be b4 27 45 bd d1 a6 35 3d
       -0.13627465 -0.18795416 -0.048133567 0.04434854
000060 9d cc 48 3e 1a f8 ac bd 9e eb e1 3d f8 d2 92 bc
       0.19609304 -0.08445759 0.110312685 -0.017922863
000070 7d 63 0a be 31 2d 8f be 98 ef 16 be 40 54 d4 bd
       -0.13514514 -0.27964166 -0.14739835 -0.10367632
000080 3d 5c 36 3e 2e 36 db ba 6f 05 0e 3d e0 cc b8 3d
       0.17808624 -0.0016724521 0.03467315 0.09023452
000090 5d 2b a9 bd 83 c5 97 be ab 56 6a be 9c c8 34 3d
       -0.08260224 -0.29642877 -0.22884624 0.04413663
0000a0 4d d4 5b 3e a8 1e 04 be cf 92 47 3c b5 89 2a be
       0.21467705 -0.1290232 0.012180998 -0.16654094
0000b0 37 a5 49 be 7c 1e 11 3e c9 9e 83 be 13 18 a1 bd
       -0.1969193 0.14171785 -0.2570708 -0.0786592
0000c0 9a 8c dd bd a5 92 bf 3d 4d f8 62 bd c7 b9 24 3e
       -0.10817833 0.09354142 -0.05541258 0.16086493
0000d0 c4 9c 22 be 2d f2 92 3c 8e dd d8 3d 17 bb 6d be
       -0.15880114 0.017937744 0.10589133 -0.232159
0000e0 1f 31 d4 3d 42 9b 48 be e8 61 8b bd b1 d5 fb 3c
       0.103609316 -0.19590476 -0.068057835 0.030741544
0000f0 c5 80 87 be af 4b 06 be f5 27 48 3e cb 6d 79 bd
       -0.2646543 -0.13114808 0.19546492 -0.060895722
000100 40 1c 22 3e 63 fc f8 bd e3 61 18 3d e6 e2 36 be
       0.15831089 -0.12157514 0.037202727 -0.17859992
000110 86 32 76 bd 72 ce 82 bc bc 9f f6 3d 1e ac 1e bd
       -0.060106777 -0.015967581 0.12042186 -0.038738362
000120 43 84 a7 be 66 af 06 bc 10 e4 2b be 0f 96 c8 bd
       -0.32718095 -0.008220529 -0.16786218 -0.097942464
000130 60 5a 90 be 15 e8 47 3e c5 c2 09 be 14 e6 9a bb
       -0.2819395 0.19522126 -0.13453205 -0.0047271345
000140 ff 5e 8b be b8 1b d6 bd 44 b0 2a 3d 60 5b 14 be
       -0.27220914 -0.10454506 0.041672006 -0.14487982
000150 f5 12 eb bd 3c aa ef bd 15 c3 48 bd ce 49 2d be
       -0.11478225 -0.117023915 -0.04901417 -0.16922686
000160 fe 08 e2 3c ec bb 6e bd d6 a2 56 bd c7 68 66 3d
       0.027592178 -0.058284685 -0.052401386 0.056252267
000170 a5 8a 41 3e bf e0 af bd ba 42 a1 bc 5f e9 8e be
       0.18900545 -0.08587789 -0.019685138 -0.27912423
000180 94 2e 60 be 58 c6 84 3b 5b 86 36 bd 6e 5e 22 bd
       -0.21892768 0.0040519647 -0.044561725 -0.039640836
000190 49 a9 62 be f0 a5 f8 bd 2d 7d dc 3d 7d 3e 13 be
       -0.2213489 -0.12141025 0.10766063 -0.14379306
0001a0 12 83 2e 3e e7 dc 6d 3e d1 b6 72 bd 78 39 7d bd
       0.17042187 0.23228799 -0.05925638 -0.061822385
0001b0 3b 23 0f be ea 54 ed 3c d2 76 94 3e 00 2a 66 bc
       -0.13978283 0.028971154 0.28996903 -0.0140480995
0001c0 35 8b 80 bd 7b 7d c6 bc 2a 0b 46 be 51 34 40 be
       -0.06276552 -0.024229756 -0.19340196 -0.18769957
0001d0 98 b3 37 3e 89 dd b4 be 07 0a 82 be 42 b5 ad bd
       0.17939603 -0.35325268 -0.25398275 -0.08481838
0001e0 38 42 8b bd 50 c4 60 be 6e 91 8d be 7a 7b 31 be
       -0.067997396 -0.21949887 -0.27650017 -0.17332259
0001f0 e7 51 b0 3e 78 41 37 be 3d a5 97 3d a9 88 96 be
       0.34437487 -0.17896068 0.074045636 -0.29401138
000200 86 bb fc 3b 61 89 2f 3d c7 e8 6b 3e ef 64 61 be
       0.007712784 0.042855624 0.23038016 -0.2201116
000210 2a 9c 16 3e e2 0b b5 3c 78 40 96 be ec 49 03 be
       0.1470801 0.022100393 -0.2934606 -0.12821168
000220 4f 48 a6 be 5c 0a 9e bd 20 a9 a4 be 52 63 5b 3c
       -0.32477042 -0.0771682 -0.32160282 0.013390379
000230 9f 91 30 be 72 ff 7e be 4e ee 88 be 7f 51 e8 bd
       -0.1724305 -0.24902132 -0.26744312 -0.11343669
000240 96 88 89 3e e3 1b d3 be f9 d6 ce bd 7c 86 02 3e
       0.2686202 -0.41232213 -0.100995965 0.12746614
000250 2c 77 44 be 18 28 c0 bd 4b 33 50 be d3 88 28 3d
       -0.19186085 -0.09382647 -0.20332067 0.04114611
000260 dd 13 a8 3d c5 bb d0 3d 5e 53 fe bd e5 57 ea bd
       0.082069136 0.10192064 -0.12418245 -0.11442546
000270 78 d6 6b 3e cd ca 13 3d 59 db 86 3d 79 0c ad bc
       0.23031032 0.036082078 0.06584806 -0.021124111
000280 17 e0 62 bd 48 c8 08 bd 58 e3 7f be d8 89 97 3e
       -0.05538949 -0.033394128 -0.24989069 0.29597354
000290 1f ea cd 3b f8 d2 bc 3d 40 64 41 be d0 ba d1 bd
       0.006284013 0.092199266 -0.18885899 -0.1024071
0002a0 29 06 cc 3d e9 1f 12 be 94 39 46 3e 6d 94 60 bc
       0.099621125 -0.14269985 0.19357902 -0.013707262
0002b0 78 b9 e3 bc 88 d8 88 3e 80 20 ef 3d ac 6c 21 3b
       -0.0277984 0.267277 0.11676121 0.0024631424
0002c0 26 de 4a be 1f 29 11 3e 27 04 bb be dd 8e eb 3d
       -0.19811305 0.14175843 -0.36526605 0.115018584
0002d0 6c 47 35 be bb e4 ca bd ca 55 32 3e 1b 16 06 bc
       -0.17703027 -0.09906908 0.17415538 -0.008183981
0002e0 92 69 4f 3e cd e8 56 3e 07 f1 4a be 4d 98 43 be
       0.20255116 0.20987244 -0.19818507 -0.19101067
0002f0 34 c1 bf 3d 43 26 8a 3e 7d e4 be 3d b6 56 9e be
       0.093630224 0.26982316 0.093209244 -0.3092553
000300 52 35 56 3e 30 54 89 bc 89 9c 2b 3d c8 32 eb 3d
       0.20918778 -0.016763777 0.04189733 0.11484295
000310 41 bc 72 3e 7d ed 4b bd 66 f7 bd bd d9 ba 8b bd
       0.23704626 -0.049787033 -0.09275703 -0.06822748
000320 8d 54 8a 3b 37 8f bc 3d 84 c5 28 3e 59 3e cf 3d
       0.004221505 0.092070036 0.16481596 0.10119314
000330 59 b7 5c be 3d 3c 3f 3d 63 be 34 be 85 bd f4 3d
       -0.21554317 0.046688307 -0.17650752 0.119502105
000340 5f b2 2a be 96 26 16 bd 98 39 83 bd b5 4e e4 bd
       -0.16669606 -0.036657892 -0.064074695 -0.11147825
000350 0b 87 e0 bd a0 c5 28 3e 28 50 55 3d 63 6e 93 3d
       -0.109632574 0.16481638 0.052078396 0.07198789
000360 4c af d7 3d 62 d9 37 be 4a 7e e7 bb d1 67 4a 3e
       0.10531482 -0.17954019 -0.0070646154 0.19766165
000370 95 21 f9 3d d6 05 2c be a5 86 55 be 85 e1 8a 3e
       0.121646084 -0.16799101 -0.20852144 0.27125183
000380 d1 69 79 be 2a fa ea bd 4e 15 3b 3d 99 51 b4 bd
       -0.24356772 -0.11473496 0.045674615 -0.08804626
000390 30 93 c7 3b a0 f2 90 bd 66 02 6e be e2 c8 89 3e
       0.006090544 -0.07077527 -0.23243102 0.26911074
0003a0 a2 5e 42 be ae bb 23 bb 35 84 e8 bd ff 99 61 3e
       -0.18981412 -0.0024983692 -0.113533415 0.22031401
0003b0 6e 98 5a 3e 94 1e b0 3c f3 1e 90 3a aa 6f 15 3e
       0.2134721 0.021498956 0.0010995552 0.14593378
0003c0 e8 a3 16 be 9b a9 15 3e 72 50 cb bd 29 6e 64 3d
       -0.14710963 0.1461548 -0.09927453 0.05576912
0003d0 4d 23 48 3e 1d ff fa 3d 1e d9 60 be 52 be 57 be
       0.19544716 0.1225569 -0.21957824 -0.21068695
0003e0 b1 54 5a 3e 10 58 a0 be 6d 5e 5a 3d 0e da c7 3c
       0.2132137 -0.31317186 0.053312708 0.024395969
0003f0 79 d2 c2 bd a6 2d 7b bc 9f 42 0c 3c 50 92 8a bd
       -0.09512801 -0.015330708 0.008560806 -0.06766188

weight f4 [10, 256]
000000 33 b5 68 bf a1 26 0f 3e ce 23 2e be 7a c1 1e 3e
       -0.9090149 0.1397958 -0.17005846 0.15503493
000010 91 9b e9 3e 1d d3 0d be 7e 67 18 bf 59 a9 09 3e
       0.456265 -0.13850065 -0.59532917 0.13443507
000020 a0 8b 6c bd dd 12 38 bf f6 8a c3 3d b8 e7 7d 3e
       -0.057750344 -0.71903783 0.09547989 0.24795425
000030 d8 d9 25 3e 71 33 92 3d c7 fa 8f be dc 24 43 3e
       0.16196382 0.07138718 -0.28121015 0.1905703
000040 ca 16 b9 be a4 27 8b 3e ff 57 94 3e 60 7e 2a bf
       -0.361502 0.2717868 0.28973386 -0.6659908
000050 23 87 8b 3e f0 29 cb 3e c0 7a 33 3d ec f5 88 3e
       0.2725154 0.39680433 0.043818235 0.26750124
000060 86 2c 31 be b1 d3 c5 be 8b 1f 2d bf 42 75 3f bf
       -0.1730214 -0.3863807 -0.67626256 -0.74788296
000070 ae 25 89 3e 2d 5b 43 3d de 80 8e be 6f b1 75 3e
       0.2678656 0.047694374 -0.27832693 0.23993467
000080 84 63 1f 3e 9a 07 0b bf 4b c5 af bd ca 36 18 bd
       0.15565306 -0.54308474 -0.085825525 -0.037161626
000090 66 2a 80 bb 1c 26 be be f2 d7 22 3e 80 d9 b6 3e
       -0.0039113043 -0.3713845 0.15902689 0.35712814
0000a0 9f 45 91 3e 16 8e 7e 3c e0 a9 27 3e a3 f2 91 3d
       0.2837343 0.015536806 0.16373396 0.071263574
0000b0 54 d2 8f 3e 21 11 ec bd 05 32 8f 3e 86 90 78 3e
       0.28090155 -0.115267046 0.2796785 0.24273881
0000c0 3b 57 6f 3d b0 e6 a2 be f4 5d 5b 3e 28 27 47 3e
       0.0584328 -0.31816626 0.21422559 0.1944853
0000d0 0a f8 5a 3e b1 b0 c2 3e 25 10 33 bf ff cb d5 3d
       0.21383682 0.3802543 -0.6994651 0.104393
0000e0 c0 8b be be 0b c7 8a 3d 6a 3a e2 3d 2e 02 57 3e
       -0.37215996 0.06776246 0.11046298 0.20996925
0000f0 b4 e3 a1 bd c0 88 02 be 82 42 a4 be 3f 6d 58 3d
       -0.07904759 -0.12747478 -0.3208199 0.05283856
000100 91 26 e0 39 a9 64 bc 3d 00 05 43 3e 77 2b 81 be
       0.00042753344 0.09198887 0.19044876 -0.25228474
000110 87 6c 5f bf cc 47 1a 3e e0 ae 81 3e 5e 30 b5 3e
       -0.87274975 0.15066451 0.25328732 0.35388464
000120 ae b6 6c 3e 7c 56 01 3e 7d a3 e2 3d 81 81 e9 3e
       0.23116562 0.12630647 0.11066339 0.45606616
000130 4a 5e 93 3d d6 61 fa be 1b d1 b4 bd 38 c9 36 3c
       0.071957186 -0.48902768 -0.08828946 0.011156373
000140 f6 d2 f8 be 1f 99 7a 3e 29 71 70 3e cd 6c 00 bf
       -0.4859845 0.24472474 0.23480667 -0.50166017
000150 a5 50 41 bf 2c 16 0c bf 32 5f ab 3c c9 d5 2b be
       -0.7551368 -0.5472133 0.020919416 -0.16780771
000160 d1 48 9b be 1a 5e a9 3d be b6 97 3d 8b f4 24 bf
       -0.30328992 0.082699016 0.07407902 -0.6443564
000170 86 25 0e bf 60 ed e1 be 1c 52 86 be 9a c2 2c 3e
       -0.55526006 -0.44126415 -0.2623452 0.1687111
000180 28 ae 86 3e 96 71 35 be 09 c5 5c 3e 63 fb 14 bf
       0.26304746 -0.17719111 0.21559538 -0.58196086
000190 40 33 5f 3e 17 e2 55 bf bd 6a a0 3d 69 dd ce 3d
       0.21796894 -0.8354811 0.07832859 0.101008244
0001a0 8e f7 9b 3e 63 f7 52 3e c0 65 22 3e cb d2 d8 3d
       0.30462307 0.20602183 0.15859127 0.105870806
0001b0 93 7e 57 3d 6c fa d2 3e 73 ab 10 3e d2 e2 02 bf
       0.052610945 0.41206682 0.14127903 -0.5112735
0001c0 41 9b 43 be c6 12 6e 3e 38 d6 80 3d 67 e2 f6 3d
       -0.19102193 0.23249349 0.06290859 0.120549016
0001d0 b2 3d 9b be 8d 21 ad 3d e1 2e 03 3e 02 f1 80 3e
       -0.30320507 0.08453665 0.12810852 0.25183874
0001e0 e5 6f 8e 3d fe 6b ec 3c 14 a3 64 be 2d aa 82 be
       0.06954936 0.028860088 -0.22327834 -0.2552046
0001f0 26 80 fe be 21 64 3e bf 8f e2 89 3d 89 aa 0a 3e
       -0.49707144 -0.74371535 0.06732666 0.13541616
000200 e0 ad af 3d 46 5f 93 bd e2 f8 0c 3e e2 88 67 3e
       0.08578086 -0.07195906 0.13766816 0.2261081
000210 3e dc 13 3e 5b 6f a2 be 20 ca 12 be 36 c1 b4 3e
       0.14439484 -0.31725582 -0.14334917 0.35303658
000220 4e bb 7f be 69 e0 87 be 12 af 94 3d 87 f5 cd be
       -0.24973795 -0.265384 0.072599545 -0.40226385
000230 97 91 68 be f0 c3 0b 3e ca a0 3b bf f8 fe f1 be
       -0.22711788 0.13648963 -0.7329222 -0.47264838
000240 71 69 94 3e f3 f1 64 3e e8 62 21 3e 09 ac 90 be
       0.28986695 0.22357921 0.15760386 -0.28256252
000250 0f 2c f3 be 7b fa 9a 3e 67 9b 10 3d 21 7d 04 bf
       -0.47494552 0.30269226 0.035304453 -0.5175343
000260 d8 5b 19 3e 76 4e 8a 3e b6 46 8f 3e 26 14 c3 be
       0.14976442 0.27012986 0.27983636 -0.3810131
000270 a3 99 b6 be c9 a5 34 3e 9f e8 e8 3d a1 f8 0b bf
       -0.3566409 0.17641367 0.11372494 -0.5467625
000280 3c 97 17 bf 2b bb af 3d 5a 92 df be f3 63 ae bd
       -0.5921514 0.08580621 -0.43666345 -0.085151576
000290 cf cd 07 3e db a3 b2 be d3 b6 45 3e d7 c7 3a bd
       0.13262103 -0.34890637 0.19308023 -0.04560074
0002a0 da 35 0e be 2a a5 2b 3e 37 9f 05 3e b6 8d 1e bf
       -0.1388773 0.16762224 0.13049017 -0.61934984
0002b0 c9 aa cb be dc 42 25 bd 9b 52 1c bf e6 76 f4 be
       -0.39778736 -0.040346965 -0.61063546 -0.47746962
0002c0 89 4d cb 3d d8 0d 3a bf 49 ef 24 be 53 56 3a 3d
       0.09926898 -0.72677374 -0.16106905 0.04549248
0002d0 7a e6 66 3e db 34 6f 3e 47 3a c4 be a4 ce 8d bf
       0.22548857 0.23360007 -0.38325712 -1.1078687
0002e0 b8 1b 0e bf 91 f8 2a 3e c7 53 e3 bd a7 8d 6b be
       -0.55511045 0.16696383 -0.11099964 -0.23003255
0002f0 41 a8 07 bf 82 f8 f8 3d 40 13 ca 3e 1e ad 49 be
       -0.5299111 0.12156774 0.39467812 -0.19694945
000300 26 ef c3 3d 0d 34 3a 3e 93 c6 24 3e 73 f5 aa be
       0.09567098 0.18183918 0.16091375 -0.33390388
000310 42 07 22 3e ea 94 68 3d 10 42 29 3d 6a 45 48 be
       0.15823081 0.05678264 0.041322768 -0.1955773
000320 a5 17 72 be 38 8f 3a bf c4 1e 59 3e 81 c2 be be
       -0.23641832 -0.72874784 0.21203142 -0.3725777
000330 e2 60 1f 3e 94 ed 12 bf d7 54 08 bf 29 58 fd be
       0.15564302 -0.57393765 -0.53254455 -0.49481323
000340 4e ba 96 be 45 3c a8 be aa 7f d5 be e8 f1 1d 3e
       -0.29439014 -0.32858482 -0.41698962 0.15424311
000350 d4 fd 96 3e 11 61 c4 3e 58 59 a0 3d cc 93 c9 3d
       0.2949053 0.38355306 0.07829541 0.09842643
000360 5a 26 8c 3e 90 70 a5 3e 56 d1 a0 be ef 5c 19 3e
       0.2737301 0.3231244 -0.3140971 0.14976858
000370 90 c8 c1 be ff cd 62 3e 8b ce 5b be 0a 2a 42 3e
       -0.3784833 0.22148894 -0.21465509 0.18961349
000380 5b 17 14 be b0 09 2d bf 4b aa 77 3e 06 60 31 3e
       -0.14462034 -0.67592907 0.24186055 0.17321786
000390 b6 79 1d bf b4 dc 64 3e 77 29 0b 3e 50 25 65 3e
       -0.6151384 0.22349817 0.13590036 0.22377515
0003a0 79 11 64 3e cc 21 60 3e 7f 8a 0e bf 31 5d 01 bf
       0.2227229 0.21887892 -0.5568008 -0.50532824
0003b0 fb 53 6c 3d 98 03 2e 3d 33 d8 82 3e ff f1 cb bc
       0.057697278 0.042483896 0.25555572 -0.024895666
0003c0 02 10 0e bf f6 a5 1e bf eb 3e 33 bf ac 91 13 bf
       -0.55493176 -0.61971986 -0.7001788 -0.5764415
0003d0 44 8d 6a 3d 6d 1b f3 be 5a b9 2c 3e 60 5e e9 be
       0.057263628 -0.47481862 0.16867581 -0.45579815
0003e0 11 ed 26 bf 23 89 64 3e c5 e6 9e bd 8f 22 70 3e
       -0.65205485 0.22317939 -0.077588595 0.23450683
0003f0 02 98 28 bf 61 6e 6b 3c e0 53 1a bf 5b 13 b6 ba
       -0.65856946 0.014369578 -0.60284233 -0.0013891266

bias f4 [10]
000000 bb b6 2d 3d bd 20 7e bd 14 25 08 3d 83 3d cf 3d
       0.042410593 -0.06204294 0.033238485 0.10119154
000010 30 f8 ec 3a b6 8e 7f bd 8b fd b1 3c c8 0d 4b 3c
       0.0018079337 -0.06239196 0.021727344 0.012393422
000020 07 ac 4b 3c a3 ef 8f bc
       0.012431151 -0.017570322
