model.pth (torch, 429341 bytes, 6 tensors)

weight f4 [96, 784]
00000000: f331 ebbc 135e 083c 51ab dcbc 8a43 76bc
00000010: 0a45 9bbb 003a a2ba e3e9 a6bc a598 cabb
00000020: 8197 66bc 05a2 193c 2e21 ccbc 2552 4abc
00000030: 08a7 dcbc 0e6e 00bd 2594 d03b 3ed9 febc
00000040: d3e8 fa3c 9330 f2b9 ecc0 cbbc 60a5 053d
00000050: fe8a 09bd 217d e4bc 8032 92bc 4758 8d3c
00000060: d37a a1bc ec40 ddbc aae6 03bd 2597 f43b
00000070: eaf7 4bbc eee7 d73b 0ebf 053d d749 533c
00000080: b26f 09bd 19db 85bd 22b7 12be 4209 0dbe
00000090: 12db 8bbd 607d dcbd 6265 95bd a85c 01be
000000a0: 76d2 80be 23d4 bfbd 72e9 b73c 1dbe 82be
000000b0: 0a64 06be 3258 6dbd c6e9 ccbc cfc8 55bc
000000c0: 0e0a 5bbd c7dd 09bd 2316 c5bc eea8 32bc
000000d0: 0148 fa3a 8ecd 3dbc 256f adba 3ce0 9abc
000000e0: 7152 bebc 8cd3 c03c 7af2 85bc ca92 1cbe
000000f0: 430d 48be 5cd7 82bd ba76 cbbd b4ea 13be
00000100: 23d7 58be a0d1 20be c401 46be 4857 8dbe
00000110: d74b 84be d432 63be bafd e1bd 6061 a73d
00000120: 4f17 8fbd 4172 58be c401 87be 3eca 44be
00000130: d487 f3bd 40c0 38bd 4fd3 dd39 0fda aebd
00000140: 23fc d3bd d759 903c d339 ee3b 200a 0bbd
00000150: fc3f 053c 256f c5bb 2e44 fa3b cc2c e0bd
00000160: 7598 6e3d d1f3 04bd a74a 36be 3e14 4bbe
00000170: d81e 85be 7fb8 99be 112d 59be dc8c c1bc
00000180: 643c 8abe c8df acbe 9e84 22be a0a6 2ebe
00000190: b290 17be 219c 9cbe 3b66 bcbe a889 1cbe
000001a0: f06c 3f3d 2048 2e3e e49e 463e 0cc1 9b3c
000001b0: 62a7 f5bd c180 c73c 8747 b43c 5a6e 8e3c
000001c0: faf3 ee3c cc41 9b3c 3757 a8bc 2bc3 113e
000001d0: 3ead 3b3e 969a 473e e2dd 48bb 1fd0 5b3e
000001e0: 0968 763e cee9 1b3d d4f4 dbbd c4b6 6fbd
000001f0: e769 ab3c 00e8 353e bd5a e7bd 93ea c0be
00000200: 08c1 d9be 454c a1be ec9a 32be de81 763d
00000210: a4ac 763e 46a4 b83e a23c ca3e 37ed 3d3e
00000220: 1c69 6c3c 2864 a73d 7623 3b3d 7803 5cbd
00000230: 5c2e a7bb 9c0c e93c 94bf 3fbd 245d ee3d
00000240: 8faa 8ebd 7296 cd3d e3e7 593e 9260 953e
00000250: e21c fb3d 0d2e f63d bbd9 1a3e 6a00 3abd
00000260: 7c99 7abc 7426 43be b8aa 94be 2e46 21bf
00000270: a1e2 edbe ffc7 45bd baee 4e3e 97a3 7b3e
00000280: 34a9 9e3e 7fd5 093e 2563 6c3e 9f06 3a3e
00000290: d82e a13d 227f 533c d515 08be f738 df3c
000002a0: d0f8 87bc 6e25 93bb 4d51 3a3e d19d 62bd
000002b0: efc8 a5bd a3e5 4e3e 2628 0c3e 77f1 a53d
000002c0: e894 003d d6cc 593c ce5a 21be e1e8 e4bd
000002d0: 0789 023c a856 05bd f807 b7be bf1f 37bf
000002e0: 484d 03bf bb00 31bd 52c6 143e 3f1b 3a3e
000002f0: 3b49 5c3e e35d 963d d4af a3bc 6691 a63e
00000300: 4804 be3c d7da 3ebd 11ef 143e 1ee2 7c3d
00000310: ccad f33c 929a 4a3d e635 863e 2c34 913c
00000320: 4492 99bd e6b6 2a3e 7b02 813d 51f4 0dbd
00000330: c2d2 f5ba eebd 9b3c df20 32bd ac8d 273d
00000340: 5edc f53d 719e 31bd d86a b1be da22 15bf
00000350: 9a46 cbbe 9a72 483d 3a17 163e 0fa3 903d
00000360: 647f 453c 9169 5dbc 18cc dd3d 6e7d 703e
00000370: b412 9f3d 39ce 3bbd 882d 303e 0073 a5bd
00000380: 22ba 1a3d 3735 d53d f02b 393e 659d 793d
00000390: 7132 e23d 5775 693e 2d0a 893d 4575 fa3d
000003a0: 49bd 8bbd aa3a ad3d c54c cd3d 4784 e23d
000003b0: 272f 1c3e cf36 91bd 5c97 fbbe 32ae 0ebf
000003c0: ca0f 62be 0ca6 0c3e 073f 9a3d a87d d6bd
000003d0: 4559 bcbc bb99 eb3d db40 143e cc11 133e
000003e0: 363b f93c 71e5 063e 978a 98bb d14b a6bd
000003f0: 7d36 543e ad90 803e 037e c83d 8b81 dd3d
-0.028710341 0.00832321 -0.026937159 -0.015030751 -0.0047384547 -0.0012376904 -0.020375198 -0.0061827474
-0.014074207 0.009377007 -0.024918165 -0.012348686 -0.026935115 -0.031354956 0.0063653165 -0.031109449
0.030628597 -0.00046194028 -0.024872266 0.032628417 -0.03357982 -0.027891697 -0.017846346 0.017254008
-0.019711887 -0.027008496 -0.0322024 0.007464307 -0.012449244 0.0065889275 0.032652907 0.012896023
-0.033553787 -0.0653593 -0.14327672 -0.13773063 -0.06828894 -0.10766101 -0.07294728 -0.12633002
-0.2516057 -0.09366634 0.022450183 -0.2553567 -0.131241 -0.057945438 -0.025013816 -0.013048365
-0.053476386 -0.03365877 -0.024058407 -0.010904534 0.0019094945 -0.011584653 -0.0013231976 -0.018905751
-0.02323267 0.023538373 -0.016350973 -0.1529037 -0.19536309 -0.06388733 -0.09934755 -0.14445001
-0.21175818 -0.15704966 -0.19336611 -0.27605653 -0.2583911 -0.22187358 -0.110347226 0.0817287
-0.06986868 -0.21137334 -0.26368535 -0.19217774 -0.118911415 -0.04510522 0.00042309842 -0.08537685
-0.10350826 0.017620964 0.007270077 -0.033945203 0.008132931 -0.0060252124 0.007637522 -0.10946044
0.058250863 -0.032459084 -0.17801915 -0.1983194 -0.26000094 -0.30023572 -0.21208598 -0.023626737
-0.269992 -0.33764482 -0.15870902 -0.1705575 -0.1480129 -0.30587867 -0.36796746 -0.15286887
0.04673475 0.17019701 0.1939655 0.01901295 -0.11994816 0.024353387 0.022006763 0.017386604
0.029169071 0.018952273 -0.0205494 0.14234607 0.18327805 0.19492564 -0.003064983 0.2146611
0.24063124 0.03806477 -0.10740057 -0.05852391 0.020924522 0.17764282 -0.11296604 -0.37678966
-0.42530084 -0.31503502 -0.1744191 0.060182445 0.24089295 0.3606283 0.39499384 0.18547522
0.014429357 0.081734 0.045688115 -0.053714246 -0.005101962 0.028448395 -0.046813563 0.11638859
-0.06966125 0.10038461 0.21279864 0.2917524 0.12261368 0.12020502 0.1512212 -0.04541055
-0.015295383 -0.19057637 -0.29036498 -0.6299771 -0.46461967 -0.048286434 0.20208254 0.24574123
0.30988467 0.13460349 0.23084696 0.18166588 0.07870263 0.012908729 -0.13289578 0.027248843
-0.016598135 -0.004490546 0.18195076 -0.055326287 -0.08094966 0.20204787 0.1368719 0.081026964
0.031392008 0.013293466 -0.15757295 -0.111772306 0.00796724 -0.032553345 -0.35748267 -0.71532816
-0.51289797 -0.043213587 0.14528778 0.18174456 0.2151231 0.07342126 -0.019981302 0.32532805
0.0231954 -0.04659542 0.14544322 0.06173908 0.029745959 0.049463816 0.26212996 0.017725073
-0.07498601 0.16671333 0.06299301 -0.034656826 -0.0018754827 0.019011464 -0.04348838 0.040906593
0.12004922 -0.043363992 -0.34651828 -0.58256304 -0.39702302 0.048937418 0.14657298 0.07062351
0.012054298 -0.0135139385 0.108299434 0.23485348 0.07767239 -0.045850966 0.17204869 -0.08078575
0.037775166 0.104105406 0.18083167 0.06094112 0.11044777 0.22798668 0.06691394 0.12229399
-0.06823213 0.08458455 0.10024408 0.11060386 0.15252362 -0.07090532 -0.49138916 -0.5573455
-0.22076336 0.13735217 0.07531553 -0.10473186 -0.022991786 0.11503931 0.14477865 0.14362258
0.030423742 0.13173462 -0.004655193 -0.081199296 0.2072391 0.2511038 0.0978966 0.10815724

bias f4 [96]
00000000: 9bfe 043e 94c0 cc3b 85d4 ac3e 762d 38bc
00000010: 64da 353e b8a1 66bd ac37 01be 6af6 26bd
00000020: 6e0c 3cbd df72 d4bd c06c e33d 0089 b9bd
00000030: f17c 2c3e f2e6 c7bd 3063 db3b 3131 0bbd
00000040: dbb4 8b3e 6105 933c de52 89bd a5b3 3bbd
00000050: c38a fe3c 80dd 703e e780 3fbe 8600 323c
00000060: 5ab8 9dbd edb2 21be c7e9 7abe de4a 183e
00000070: 0a2e fe3b 6b99 16be 6f30 95bd 38f8 793e
00000080: 1f8a d5bd 1b62 90be c133 ad3d 9ce6 323e
00000090: 1697 d3bd cd97 5fbd b32b 31be 919a 86b9
000000a0: 32c2 093e c8c6 b9bd f84b 0fbd ee3a 32be
000000b0: c00c 073e 8509 e43d 3d45 8b3d f807 e23d
000000c0: 222d de3d b7cb 953d f61e 28be c2b3 a83b
000000d0: 7361 d1bd 0100 573e 71b5 8bbe d288 173d
000000e0: f44c 4bbe 26f3 a53d 0a6c 073e 0ff4 3cbe
000000f0: d7b3 25be e4a4 8dbe 68ce 38bd ac01 a03c
00000100: e901 24bd 525f 563e 7d63 f23d 1df1 54be
00000110: edd4 6c3c a15a 27be 19df bf3c 82ab 83bd
00000120: 75be 51bc e427 3d3b e16b ddbc cee7 003c
00000130: d373 46be 348e 89bd 1f81 a4be fb84 cdbb
00000140: efa4 ac3d 7149 463e fb52 83be fc37 85be
00000150: dc49 873d c1d8 5abe 5a9d 7c3e a7c4 a03d
00000160: d849 0b3e 83cd a2bd 6dc2 d3bb 62c2 503c
00000170: d0fa f03b 5fe5 17be e9a0 62be 6784 5bbd
0.1298775 0.006248543 0.3375589 -0.0112413075 0.1775909 -0.05630657 -0.12618893 -0.040762343
-0.04591029 -0.103734724 0.11104727 -0.09059334 0.16844536 -0.09760846 0.0066951737 -0.03398246
0.2728642 0.0179469 -0.06705259 -0.04582562 0.031072026 0.23521996 -0.18701516 0.010864383
-0.07701178 -0.15790911 -0.24503241 0.1487231 0.007756953 -0.14706962 -0.072846286 0.24411094
-0.10426735 -0.2819985 0.08457137 0.17470783 -0.10331552 -0.054588128 -0.17301826 -0.00025673633
0.13452986 -0.09071118 -0.03498456 -0.17405292 0.13188457 0.11134628 0.068003155 0.11036676
0.10848452 0.07314246 -0.1641806 0.005148382 -0.10223665 0.20996095 -0.27286866 0.036995716
-0.19853574 0.081030175 0.13224807 -0.18452476 -0.16181885 -0.27664864 -0.04511872 0.019532047
-0.040040884 0.209348 0.11835382 -0.20795102 0.014455062 -0.16343166 0.023421811 -0.06429197
-0.012801756 0.0028862888 -0.02702898 0.007867767 -0.19380121 -0.06716576 -0.32129762 -0.006271956
0.08429896 0.19363953 -0.25649247 -0.26019275 0.066058844 -0.21371748 0.246694 0.078500085
0.13602388 -0.079493545 -0.0064623863 0.012741657 0.007354118 -0.14833592 -0.22131695 -0.053593066

weight f4 [256, 96]
00000000: 26aa 8bbe f8ab 383b 1481 63bd 75a7 b93d
00000010: f13a 70be 3745 753d a1c4 58be 0172 b83d
00000020: bd2e 223e 53b8 4abd 3a8c 363d 8fae fa3c
00000030: 6a1a 033e bf99 4a3e 0f1a 3dbe f2f9 9f3c
00000040: 331a 0a3e 9716 773c ef07 64bc d4c0 183e
00000050: 3e22 46bd 69d6 b0bd 6cb9 a63b 0ea2 2a3e
00000060: e699 d8bd 6a02 773d a5cd 313e d0ab ed3b
00000070: 535f 5f3e 8a85 893d 9633 6e3d 16ea 1cbe
00000080: e763 75bd 4b43 c4bd 8168 a9bd 64ca 24be
00000090: d703 623e b2fc b1bd 123d 243d b842 a73b
000000a0: 4bdc e13d 7d2c 683e 0084 a3bd 7520 b2bd
000000b0: f205 713e 09e0 3b3e 7362 9d3e 7200 9a3d
000000c0: 3493 3f3d eeb8 63be a150 50be 5690 cc3d
000000d0: a67d 53bd ecd3 223d c464 623d d35a c43d
000000e0: 5273 803e 32f4 e8be f947 7ebe c990 1cbd
000000f0: 082f 053e e97e ebbd cd86 bd3c 561a 4f3d
00000100: d078 a83c e04a e33c 5228 9fbb 3f00 f7bd
00000110: bc13 573b 10a9 a8bd 569c 273e d197 993d
00000120: 0fc5 143c e052 64be bdf0 b03d c602 6c3d
00000130: f411 7fbc 7388 8abd 225c a5bd e9f2 463e
00000140: e258 44be f9cf 3a3c 0c2e 45bd f095 1abe
00000150: e578 36bd d3a4 d43d 29b2 bd3c e31c 24bd
00000160: 0afb a5be 3f82 7b3c 8343 f43d 9937 7cbc
00000170: 64f3 67be 771e 913d 3516 43be 2ceb f43d
00000180: b3a6 483e 6e5d 83be 1dca d1bd 8f12 0abe
00000190: 5af6 e73d 2492 a5bc c589 343e c828 e6bd
000001a0: 6f75 d2be d6f5 453e fcd2 1c3e 3395 8cbe
000001b0: a9ab 2a3e 3d8c b039 6248 4dbe f471 183e
000001c0: 194e 743e 3d68 17be ecf3 1b3d c976 92bd
000001d0: ccca 843c 8831 95bd ee01 8fbd 0f3e 4ebd
000001e0: e8e2 233a b117 88bd 0e51 d1bd ba24 02bd
000001f0: a494 cebe d2d9 a6bd ac79 eebc 5066 16bd
00000200: 6f57 26be 0133 2cbe 995a 853e d156 a43d
00000210: b83e 91bd 6f5a b63c 7605 4dbe 3b57 35bd
00000220: 1acc f93d 6025 bb3d 0c46 8cbe e19f d2bd
00000230: fb5b 04bd 87c4 9fbd b88a f73b 2bbd eebd
00000240: 6c24 893e b7ed 4dbe 8cda 9e3d cee7 3dbd
00000250: 77a1 38be 756b f9bd ceab ddbd 1457 f9bd
00000260: b6fe 1bbd 7d28 a23c 15b8 08be 7c87 89ba
00000270: 1c91 233d 894a 693d 36f8 7cbb fc5b 99bd
00000280: eb2f b6bc 6a93 73bd 8a40 7e3d 3ac5 49bc
00000290: d1a9 113c 7ce2 9d3e cc12 7e3e bfc6 2dbd
000002a0: ed7d 863c 309d 32bc 64dc a1bd 4484 cdbd
000002b0: f3bd 013e dace f43c faba 89bd d922 b13d
000002c0: 3cc4 d1bd 6356 da3c f850 663d dc5c 37bd
000002d0: 4131 9ebc 6be5 cfbd aead 4ebe 8b8d 61be
000002e0: c18e 363d 4c75 13bd c7e6 3ebd fca6 463d
000002f0: 1789 8f3e c6c5 31be 0f5e 2bbd ccdd 28be
00000300: df13 b4bc 8899 1bbe 3768 ad3c 1674 883e
00000310: d02e ad3d b969 98bd 166e fd3d 6d2e 6e3e
00000320: d985 4dbd 0937 d0bd 0d8f 923e d245 763d
00000330: f308 0cbe 322f fabd 79b5 3cbe 3743 56bd
00000340: 3ffe 4dbb 2964 513e 22e8 a2bd 5873 2f3c
00000350: fda4 5c3e c45a 533e 637d 93be d5fb 5f3e
00000360: d408 96bd 351b cbbd ef0a 49be 2dbc 8fbd
00000370: a8e4 063c ade6 08be 68cc 543e 3b42 9a3e
00000380: 56d4 823d 35de 8abd 0174 eabd 532b e3bd
00000390: fcd0 373e 6952 a23d a4cf 3abe ddf2 04bd
000003a0: 24fe db3c ba2c a0bd c7f5 66bd 4338 b03c
000003b0: 949f 98be 4347 683d 719a 753e 3850 71bd
000003c0: cb78 2a3a 9e86 403d 69e3 18bd 4494 61bd
000003d0: a5d7 f9bd 6ebc b63c 6158 5cbd 9fd4 3c3d
000003e0: cea1 48bc 910a e93d bec4 38bd 6b4d 3ebd
000003f0: bc60 65bd bc84 073e 798c b43d 1c63 91bd
-0.2727825 0.0028178673 -0.05554302 0.09065143 -0.23459984 0.05988046 -0.21168758 0.090061195
0.15838142 -0.04949219 0.044567324 0.030600814 0.12803045 0.19785212 -0.18466972 0.019528363
0.13486557 0.015081069 -0.013917907 0.14917308 -0.0483725 -0.086346455 0.005088022 0.16663381
-0.10576229 0.060305037 0.17363603 0.0072531477 0.21813707 0.06714924 0.058154665 -0.15323672
-0.059909727 -0.095831476 -0.08271886 -0.16092831 0.22071777 -0.08690776 0.040097304 0.005104389
0.11028346 0.22673221 -0.079841614 -0.08697597 0.23537424 0.18347181 0.30739173 0.07519616
0.046771243 -0.22238514 -0.20343257 0.099884674 -0.0516335 0.039752886 0.05527188 0.09587636
0.25087982 -0.45498806 -0.24832143 -0.038224015 0.13006222 -0.114988156 0.023135567 0.050562225
0.02056542 0.027745664 -0.0048571015 -0.12060594 0.003281816 -0.08235371 0.16368231 0.0749966
0.009080186 -0.2229724 0.08639667 0.057619832 -0.015568245 -0.06764307 -0.080742136 0.194286
-0.19174531 0.011402124 -0.048139617 -0.15096259 -0.044548888 0.10383 0.023156242 -0.04006661
-0.3241809 0.015350877 0.11926939 -0.015394115 -0.2265144 0.07085889 -0.1905144 0.11958918
0.1959484 -0.2565722 -0.10243628 -0.13483642 0.11326285 -0.020211287 0.1763068 -0.11238247
-0.4110522 0.1933206 0.15314859 -0.2745758 0.16667046 0.00033673822 -0.20047143 0.1488722
0.23857917 -0.14785857 0.03807442 -0.07151563 0.016209982 -0.07284838 -0.0698279 -0.050352152
0.0006251768 -0.06645144 -0.10220538 -0.031773306 -0.4034778 -0.08147015 -0.029110752 -0.036718667
-0.16244291 -0.16816331 0.26045683 0.080243714 -0.07092041 0.022259919 -0.20021614 -0.044272643
0.121971324 0.09137988 -0.27397192 -0.10284401 -0.032314282 -0.078011565 0.0075543784 -0.11657175
0.267856 -0.20110212 0.07756528 -0.046363644 -0.18030344 -0.12178699 -0.10823785 -0.12174812
-0.03808471 0.019794697 -0.13351472 -0.0010492648 0.03993331 0.056955848 -0.0038600094 -0.07488248
-0.022239646 -0.059466757 0.062073268 -0.012315089 0.008890585 0.30836856 0.24811858 -0.042425867
0.016417468 -0.010901734 -0.07903364 -0.10034993 0.12670116 0.02988379 -0.06725116 0.08649225
-0.10242507 0.02665252 0.05622956 -0.044766292 -0.019310595 -0.1015118 -0.20183441 -0.2202665
0.044569734 -0.036000535 -0.046606805 0.048499092 0.2803428 -0.17360601 -0.04183775 -0.16490859
-0.021982132 -0.15195286 0.021167858 0.26651067 0.084561944 -0.0744204 0.12374513 0.23259898
-0.050176475 -0.10166747 0.28624764 0.06012518 -0.13675289 -0.12216033 -0.18428601 -0.052310195
-0.003143206 0.20448364 -0.07954432 0.010708652 0.21547313 0.20640093 -0.288066 0.2187341
-0.073259026 -0.09917299 -0.19633077 -0.070183136 0.008233227 -0.13369246 0.207811 0.30128655
0.06388156 -0.06780664 -0.11447907 -0.11092248 0.17950815 0.07925875 -0.18243271 -0.032458175
0.026854582 -0.07821031 -0.056386735 0.021511203 -0.29809248 0.056708585 0.23984696 -0.058914393
0.0006502985 0.04700338 -0.03732625 -0.055073038 -0.12199334 0.022306647 -0.053795222 0.04610121
-0.0122456085 0.113789685 -0.045109503 -0.04646055 -0.056000456 0.13234228 0.088158555 -0.07098982

bias f4 [256]
00000000: 17b5 16be 7432 543d 61a0 993c 770d b9bc
00000010: e88c 7cbd a8ec 203e 4609 763e 60ab bb3d
00000020: 4d04 3fbd 0905 cebd 8f07 163e ab51 8d3d
00000030: 9388 c33d e4ef e7bd 2dc5 3c3d 207f 0dbe
00000040: e241 ec3d da83 5abc 5cb2 0e3e 8c01 6e3e
00000050: 55e0 453c df35 70bd 1a7a 5f3e acad b9bd
00000060: 5b86 f83d 3d64 3abe 06d3 ad3e 8774 bc3d
00000070: b025 c13d 39c1 4cbc 0b1f 2abe 9e54 ce3d
00000080: 2b52 a23e 4b89 3f3c e437 503d e999 4c3e
00000090: 0202 a7bd 55e9 2f3e 450b debd ded3 3a3d
000000a0: 6073 c93d 2599 ba3d f820 be3e 0582 35be
000000b0: 5475 f7bd f096 2f3d 92c9 6fbe 0ced 603e
000000c0: 48c6 d33d 6e0e 383e 46c8 023d 1960 5a3d
000000d0: 64fa 343d d06c c53d 93e5 3d3e d811 443e
000000e0: abed a8bb e49c 9d3e 6f0a 7ebd 527c 7ebc
000000f0: 385e 1c3e ae8d 8fbd 2e40 4f3d 409c 753e
00000100: 92a1 053e ac6e 5c3e 1f7b 8cbd b0f2 dbbc
00000110: 911a b1bd 11f9 a03c 2abb d7bd 8af5 97bd
00000120: d189 ce3c eaf4 033a f55d 80bd 3e11 953e
00000130: 77e2 403d 95a8 6e3d dfb2 323e 846f dfbd
00000140: cec1 0c3e 1e64 31bd 98b5 3b3e f4f1 adbe
00000150: 4cf0 913d 74a0 683e e3a1 84bc 75c2 dbbd
00000160: dfb9 acbc b8f0 6c3d 8e18 7f3d a0a9 623e
00000170: 0bf2 e0bc e77a f13d 325b 533d 84d7 6c3e
00000180: d1ae bbbd 70cb 0f3e beee 00bc 22ed a53c
00000190: 31b6 21be 9be6 d43d b9ed 26bd cb51 a8bd
000001a0: 7637 bc3d fdc5 30be da56 033e da2f a9bd
000001b0: ccac 0fbd b015 07be d908 c3bd bc46 f33d
000001c0: 9849 093e d50a 91be 749f 72be 94d9 5ebe
000001d0: f53c adbb 6c91 323b 344f b63d befe 173e
000001e0: a1ff 40be 6618 d43d 2e15 a23e e7f2 60be
000001f0: 1bad b8bd 42f8 583d be32 3ebe 8a66 52bc
00000200: e5c2 ba3c 48ac 623e c1e9 e3bd c076 6abd
00000210: 0e4e f8bd 2ced e6bd 8492 043d 5651 353e
00000220: d31c 3abe 38d0 83bd 0568 c23d ac8b 54be
00000230: b5be 27be 74dc 94bc 43fb 953d fdb8 ed3d
00000240: 9077 0bbe cb4c 7dbd e901 053d eb7f 003e
00000250: 865e af3d 7507 5cbe 243f 4d3b 7cc4 373d
00000260: 3263 dc3d 3299 b5bc 6f04 9c3c 6049 0f3e
00000270: 7ab2 3cbe 4add fabd ca08 a5bd 0af7 b4bd
00000280: 8950 b2bd 6179 763e 1eb0 8f3c a985 a4bd
00000290: c3e7 253e 7e0b b2bd 0b3a 6d3e 8553 bbbc
000002a0: def0 cf3e 46e9 00bd dc87 b43c 6bd7 7dbd
000002b0: fdc6 0e3d 3fec 023b bc64 1e3c b16d 5dbe
000002c0: 12ab 92bd 50bb bc3c b817 893e 2183 843e
000002d0: 6b28 363e b5a9 75be 4368 e7bd dd6c cc3d
000002e0: d8ca 81bd 8370 05bb bf53 c0ba 330d c1bc
000002f0: 3fb0 b73c d1b9 cbbd da03 6a3d b8d6 383a
00000300: 9de1 10be 8606 3ebe 6448 2abd 5757 c4ba
00000310: 16c1 b93d b107 a6be 3a15 0abe 7ed1 233e
00000320: 6805 e2bd 4bfc 483d cf05 fe3e 047c 663e
00000330: ad84 2a3d 795d 923e b5b5 133e f5b1 66bd
00000340: ce5f 13bd 6180 1ebd 0b45 0cbe ff88 14be
00000350: f387 a23d 2ffa c0bd 10f8 3a3d 47fa 57be
00000360: 0732 f8bd 7522 febc 0f4f c63d 0df1 003e
00000370: 1199 86be b6f6 b0bd 5dd5 193e 3626 0a3e
00000380: 7a37 303e 7a57 35be f53b 303e 505c 6d3e
00000390: 6f96 54bd 5a8b d63d e373 8c3d 39ab 283d
000003a0: 4a2c 0e3d da39 db3c 5998 6ebe cba0 b93e
000003b0: bc87 bd3d 579b 263c 51f5 22be 59eb b63d
000003c0: 971d 313e d4ff bd3d cb74 fb3d edd1 c9bd
000003d0: c3c6 a53c 58fb cf3d 71a2 543d f43f 443e
000003e0: 97a8 e23d 29e2 7abe 9c54 09be 287b 7b3e
000003f0: ae0b 92bc 2212 2f3e 7ba1 5e3e ea04 953c
-0.14717518 0.05180593 0.018753232 -0.022589428 -0.061657816 0.15715277 0.24026975 0.091635466
-0.04663496 -0.10059554 0.14651321 0.069003426 0.09547534 -0.113250524 0.04608648 -0.13818026
0.11536004 -0.0133371 0.13935226 0.23242778 0.012077411 -0.058645125 0.21823922 -0.090663284
0.12135001 -0.182023 0.3395006 0.09201913 0.094310164 -0.01249724 -0.16613404 0.10074733
0.31703314 0.011690448 0.05083455 0.19980587 -0.0815468 0.17178853 -0.10841993 0.04561221
0.09836459 0.09111241 0.37134528 -0.1772538 -0.120829254 0.042868555 -0.23416737 0.21965426
0.103405535 0.17974254 0.031929277 0.053314302 0.044184104 0.09639895 0.18544607 0.19147432
-0.0051552854 0.3078376 -0.06202167 -0.01553257 0.15270317 -0.07009445 0.050598316 0.23985386
0.13049915 0.21526593 -0.06859421 -0.02684912 -0.08647645 0.019650014 -0.105337456 -0.0741988
0.0252122 0.00050337485 -0.06267921 0.29114717 0.047090974 0.05826624 0.17451046 -0.10909942
0.13745806 -0.04330837 0.18330991 -0.33973658 0.07125911 0.22717458 -0.016190475 -0.10730449
-0.021084724 0.057846755 0.062279277 0.2213502 -0.027459165 0.1179102 0.051600643 0.23129088
-0.09164203 0.14042449 -0.007869421 0.020254675 -0.15792157 0.10395547 -0.040754054 -0.08218726
0.09190266 -0.17263027 0.128261 -0.0826108 -0.0350769 -0.13191867 -0.09523172 0.11878726
0.1340698 -0.28328577 -0.23693639 -0.21762687 -0.0052868077 0.0027247323 0.089018255 0.1484327
-0.18847515 0.10356216 0.31656784 -0.2196766 -0.09017392 0.052971132 -0.18574044 -0.01284183
0.022798011 0.22136033 -0.111285694 -0.057242155 -0.12124263 -0.11275706 0.03236629 0.17706808
-0.18175058 -0.06436199 0.094924964 -0.20756406 -0.16381343 -0.018171526 0.07323315 0.11607549
-0.13619828 -0.061840814 0.032472525 0.12548797 0.08562951 -0.2148722 0.0031318152 0.044865116
0.107611075 -0.022167776 0.019045083 0.13992834 -0.18427458 -0.12249239 -0.08058317 -0.088361815
-0.08706767 0.2406974 0.017540034 -0.08033306 0.16201691 -0.08693598 0.23166673 -0.022866974
0.40613455 -0.031472467 0.022037439 -0.061973017 0.03485774 0.001997724 0.009667572 -0.21623875
-0.07161535 0.023038536 0.26775908 0.25881293 0.17788856 -0.2399052 -0.11299183 0.099817015
-0.063375175 -0.0020361252 -0.0014673396 -0.023565864 0.022422908 -0.09947551 0.05713258 0.00070510386
-0.14148565 -0.18557176 -0.041572943 -0.0014979643 0.09070031 -0.32427743 -0.1348466 0.15997884
-0.110361874 0.04906873 0.49613807 0.22508246 0.041630436 0.2858694 0.14424784 -0.056322057
-0.03598004 -0.03869665 -0.13698213 -0.14505385 0.079360865 -0.09422719 0.045646727 -0.21091567
-0.12118917 -0.03102229 0.09683048 0.12591954 -0.26288655 -0.086408064 0.15022798 0.13491139
0.17208663 -0.17709151 0.17210372 0.23179746 -0.051901277 0.10475798 0.06858041 0.041178916
0.034710206 0.026760984 -0.23300304 0.36255488 0.09254405 0.010168872 -0.15913893 0.08931608
0.17296444 0.09277311 0.12278136 -0.09854493 0.020236379 0.10155362 0.05191273 0.19165021
0.11067312 -0.24500336 -0.13411182 0.24558699 -0.017827835 0.17096761 0.21741287 0.01819082

weight f4 [10, 256]
00000000: cefa 0abb 874f 213b 9d2d 793c 4822 5dbc
00000010: 8edf b4bd 5a61 c4be aa14 63be ee9e 11be
00000020: ea47 36bb d260 14bd 19a3 383e 5ded 6e3b
00000030: 3733 0b3e 9fbe be3d e20f 593d 276c d1bc
00000040: 91d8 463c 22ca b33b 1c86 613d b30c c6bd
00000050: 6103 cdbe 2da3 aabe 344b 033d 1b0e b1bc
00000060: 984d 57be b9f7 85be 3712 393d 0aa3 953d
00000070: e102 0dbd 57b4 91bd aff9 1abe 47ba cabe
00000080: 7194 183e d66f c33d d7b0 2a3e 6f2c e93d
00000090: 0136 c7bc 3242 b73c 103a 453d 5368 dfbd
000000a0: 0ed9 06be d2bd 493d c303 f53d dba7 afbd
000000b0: f071 8fbd 2b64 303e d861 bdbe b85a 41be
000000c0: d803 1fbe ed6f 79be c767 973e 0dff 743d
000000d0: 9724 693d 0fb7 f83d 16a4 b43c 848f 83be
000000e0: f7b1 f63d e74c c13b faea 89be 9e52 5a3e
000000f0: 3808 e93d aed1 44be ec18 29be b2d8 853c
00000100: fd68 893d 0841 1fbe 4d2c c2bc fba8 333d
00000110: f41c 313d 03dd 8fbd a516 e43c 6f89 cdbd
00000120: 34c1 343e ac5b 1f3e 4b64 003d 94e8 413d
00000130: e80a c53d 183f 4eb9 32fc 22be 2c60 27be
00000140: 2e82 6fbe 2287 673d 2c66 51bd 63e2 36be
00000150: 8f57 83be f63f b03c 6e1a ae3d cb53 bebe
00000160: bf0e f13c 2910 123e b5d2 1c3d 988a 68bd
00000170: 8cf8 68be 4b3b 4a3d 815c 953d a15f cd3d
00000180: 4246 9cbe 44f4 3dbd 06e6 11bc 95b3 303d
00000190: 5849 88be 36b8 dfbd 41ab af3d 2dc1 c33d
000001a0: c5db c43d 0472 1fbe aa89 2abe 7e86 ea3d
000001b0: d9f6 423d e1ae 23be 433b 803c 6063 bc3d
000001c0: c38a 90be 7364 63be e356 99be 7fe9 77be
000001d0: bbd0 a33d 86a3 c7be 9a9d aabe 79bc 10be
000001e0: 3bae ddbe 5cf2 91bc a68c 033e 6fa0 573d
000001f0: 572d e8bd 70c0 b83d 7b61 243d 0811 69be
00000200: bd80 2e3e 2d92 70be 9d5c 033e 92c7 94bc
00000210: ddcf 0e3d c0b3 0d3e 5bf3 29bd e3a4 fdbb
00000220: 9969 d33d 65da 1fbe c5de fa3d 87be aabc
00000230: 247d 91be d1d6 91be a1d8 5b3c 1fa3 a8bd
00000240: 29f2 8ebe feea a1bd 8796 ca3d ab86 133d
00000250: e47e d8bd 3af3 4abd 08e2 26be bd1d 513e
00000260: a9c8 40be ec10 90bd 19b7 2fbd 5933 ef3d
00000270: da79 18be fc93 31bb 7cbf fb3d ef75 16be
00000280: fdf8 053d ac48 b0bd 2a6b c0bd 301c d7be
00000290: 74ba 41be efe5 d1bd b148 3abe a269 f2bd
000002a0: 3da8 8fbd 8124 e2be 61da e63b cf53 3b3c
000002b0: 5621 b9bd c623 723e 73b3 873a 9cfc 18be
000002c0: e6cd 73be b903 963d 8d08 193d 710c 543d
000002d0: 262c 9cbe 5d18 5fbe afbf 9b3a 185d db3c
000002e0: ead1 25be 1432 09be efa6 44be cf60 1dbe
000002f0: 46b4 3f3e 4c4c ab3d 566d 1d3e ad57 bfbe
00000300: e0c7 6e3d 6833 9d3d f75a f3bd a2d0 cc3d
00000310: 6e4e fdbd 0de6 15be 0643 30be c4b1 3fbe
00000320: 6e16 e1bd 2e7c 463e abda 133e 0c3a ea3d
00000330: 1f44 39bd da15 163e 85ec 91bd fc78 343e
00000340: 16b7 8cbe 169d 89be 93a0 b83c be0f 23be
00000350: 6dab 5fbe 4986 b3be ac45 09bd 7c9e 20bf
00000360: cdd9 453e 8a84 dc3d 3d85 8abe 28ff 873e
00000370: 1443 6fbc fcb7 b53d 0ff1 35be 1d24 ea3d
00000380: 42cb 9d3d 8745 63bd 152e eb3d 8607 75be
00000390: b864 6bbe 09b9 303e 7b92 38bd ab7f 1fbf
000003a0: 24b3 6bba 38ee 73be ab75 a7be 0cb2 67bd
000003b0: d242 293e 2b57 373e 0ccd 7ebc af5a 9a3d
000003c0: dd2f 6dbe 7eea 3abe 565b 32be f865 9f3d
000003d0: 8282 3e3d 6a48 733b 8f34 10be 75a8 ccbe
000003e0: bbe3 f2be 82ab d03d 0777 bfbc cf33 043d
000003f0: e380 7fbd c9b7 c73d dc9d 213e dc24 05be
-0.002120662 0.0024614052 0.015208629 -0.013496943 -0.08831702 -0.38355523 -0.22175851 -0.14220783
-0.002781386 -0.036225148 0.18030967 0.0036457398 0.13593756 0.09313702 0.052993663 -0.025564266
0.012136594 0.0054867426 0.055059537 -0.09670391 -0.4004164 -0.33327618 0.03205414 -0.021613171
-0.21025693 -0.2616556 0.045183387 0.07306488 -0.034426574 -0.07114475 -0.15134309 -0.39595243
0.14900376 0.095428154 0.16669022 0.11385428 -0.024317743 0.022370432 0.048151076 -0.1090857
-0.13168737 0.049253292 0.11963608 -0.08576938 -0.07004154 0.17225711 -0.3698871 -0.18882263
-0.1552881 -0.24359103 0.29571363 0.059813548 0.05691966 0.12144291 0.022050899 -0.2569543
0.12045663 0.00589906 -0.26937085 0.21320578 0.11378521 -0.19220611 -0.16513413 0.01633868
0.06709478 -0.15552151 -0.023702765 0.043862324 0.043240502 -0.070245765 0.027842829 -0.10035979
0.17651826 0.15562314 0.031345647 0.047340944 0.09621221 -0.00019669195 -0.15916517 -0.1634528
-0.23389503 0.056525357 -0.05112283 -0.17859797 -0.2565274 0.021514874 0.08501135 -0.37173304
0.029425977 0.14263977 0.038286883 -0.0567728 -0.22751063 0.049372952 0.07293034 0.100280054
-0.30522352 -0.046375528 -0.0089049395 0.043140013 -0.26618457 -0.10923807 0.08577586 0.0955833
0.0961223 -0.15570837 -0.16654077 0.114514336 0.047598694 -0.1598468 0.015653258 0.09198642
-0.28230867 -0.22206287 -0.29949102 -0.24210165 0.079987966 -0.38991946 -0.33323365 -0.14134397
-0.4329699 -0.017815761 0.12846622 0.052643236 -0.11336773 0.090210795 0.040132027 -0.22760403
0.17041297 -0.23493262 0.12828298 -0.018161569 0.034866203 0.138381 -0.041491847 -0.0077406033
0.103228755 -0.15610655 0.12249521 -0.020842804 -0.28415787 -0.28484204 0.013418348 -0.08234238
-0.2791913 -0.07906149 0.09891992 0.0360171 -0.105710775 -0.049548365 -0.16297162 0.204215
-0.18826546 -0.070344776 -0.042899225 0.11679716 -0.14890233 -0.0027096262 0.12292382 -0.14693426
0.032708157 -0.08607611 -0.0939544 -0.42013693 -0.18918782 -0.102489345 -0.18191792 -0.11836554
-0.07014511 -0.44168475 0.0070450758 0.011433556 -0.090395615 0.23646459 0.0010353163 -0.14940113
-0.23809013 0.07324929 0.03736167 0.051769678 -0.30502433 -0.21786638 0.0011882688 0.026777789
-0.16193357 -0.1339801 -0.19204305 -0.15368961 0.18721113 0.08364162 0.1537374 -0.3737158
0.058296084 0.076758206 -0.118825845 0.10000731 -0.12368475 -0.14638539 -0.17213067 -0.18720156
-0.10990606 0.19383308 0.14438884 0.11436853 -0.04523098 0.14656773 -0.07125191 0.17624277
-0.27483433 -0.2687766 0.022537505 -0.15923974 -0.21842737 -0.3506339 -0.03351371 -0.6274183
0.19321366 0.10767467 -0.27054778 0.26561856 -0.014603395 0.08872983 -0.17767738 0.11432669
0.07704784 -0.05548623 0.11483399 -0.23928651 -0.2298764 0.17258085 -0.04506157 -0.6230418
-0.00089912326 -0.23821342 -0.3270696 -0.056566283 0.16529396 0.17904346 -0.015551817 0.07536828
-0.2316279 -0.18253514 -0.17417654 0.07783121 0.04651118 0.003712202 -0.1408255 -0.39972273
-0.4743937 0.101889625 -0.023372186 0.03227597 -0.062378775 0.09751851 0.15782875 -0.13002342

bias f4 [10]
00000000: edb2 523d fdf4 01be 2595 cbbd 0f7c 30be
00000010: ef9c 793d d6bf 903c dec6 51be a80d 6cbd
00000020: 97f3 993e 77eb f03b
0.05144017 -0.12691112 -0.099405564 -0.17234825 0.06094068 0.0176696 -0.20486018 -0.05763021
0.30068657 0.0073522883
